model/good/cartpoleV2_4025_record_64.pth (torch, 23154 bytes, 6 tensors)

weight f4 [64, 6]
00000000: 3cb7 2fbe e0ab 043e c0d0 0abe 8a61 293e
00000010: 1e56 d0bc 3c58 7fbe 40f0 503d 64fd f0be
00000020: bf65 c0be 64c6 47be bf86 993d f5b0 883e
00000030: 8b64 46be 91fb 46bf 36cb fdbf eaba 64bf
00000040: 09da 5cbb 4890 d53d 319c 4f3f d923 b33e
00000050: 0c32 2cbf 0af2 773e 8b8d c33d dcbe c13e
00000060: 5a1a 9f3d 1a4a 96be d1d1 133e 99e9 7cbe
00000070: 24e1 b33d f4f0 40be e379 a5be 42f5 bd3e
00000080: 77be ee3f 445a 9e3f 5f70 13be bedd b7be
00000090: 37df 0dbf c31f 27bf 77d6 1bc0 6a4e 50bf
000000a0: 8800 36b8 f789 76bd 0caa 99be 2bf2 07bf
000000b0: 4594 febf 92b8 80bf eac1 9e3d f21d 28bc
000000c0: d374 0e3f 1584 263f c839 e23f df4f 7c3e
000000d0: 3065 073a 64b6 473e a8c8 87bd e308 68be
000000e0: f204 a1bd 71e2 99be 52ea fabd 08f2 b93d
000000f0: 247a 8cbe eb53 53be 7828 10bf 7dbe ccbd
00000100: f028 9a3d 82f9 103e 2dd1 873e 197e 7a3e
00000110: 3b5c 15bf 55b5 92be 8b40 1fbe bcfe c4be
00000120: f61a dbbe 3c5c ca3e 1e98 75be f292 523c
00000130: 9ec5 0bbd 58dc ba3e c521 1bbe 025e b1be
00000140: db26 9f3d def6 f4be 4fef 9f3d 7889 93be
00000150: c074 2e3f 2979 423e b0eb 02bf f684 683e
00000160: 6cf0 32bd 73c0 65be cf0b 973f d035 8ebd
00000170: 7e2a 7bbd 97e2 ab3e 86fd 18be e502 333c
00000180: adbe ce3e 56a0 24be 9533 8a3f 28b7 513d
00000190: 0a74 9b3e eab9 c4be a910 dabe 662b c93d
000001a0: fdb2 01be 8e98 a9bd 47bc 7a3c 5abd a63e
000001b0: 1c79 863e a568 26bf c45e 15bf 50bc 9a3b
000001c0: 9d5a 1dbd c191 b3be 461c 6e3e 914f 023e
000001d0: 1d28 d5be 4d40 13bc 3d62 693c a4e4 813a
000001e0: e066 a8be ea03 813e 7502 d83e c471 ad3c
000001f0: cfe3 29bd 1379 233d c80d 1c3f 264b 2d3f
00000200: 7836 2c3f 4447 983e 8cb8 fabc e02f bf3e
00000210: 3acd e3bd deef 93be 1d3c 93bf f960 a83d
00000220: 2473 c33c b9e9 c03d e12e 673e 4f7e bfbe
00000230: d4b4 03bf 76ad 273d b7a3 9abd 524a a6be
00000240: b780 083e 9864 ad3e 08ce 913f 00e0 e63e
00000250: d1bb 68bc c62b b13c fd42 e23c 5566 98be
00000260: f929 14bf 84c6 2f3d 9366 933b 863e be3e
00000270: 7939 9b3f af6c a53d 82f4 063f 1f69 d83e
00000280: 87e0 ad3d ce82 0e3e 830a 15bd 3a8a c43d
00000290: 0a6b e1bd d25d 60bc fe41 01bd 6d59 a03e
000002a0: 4c5f 82bf 6487 20bf 5222 e7bf f1ee 22bf
000002b0: d980 f23b d2d6 9cbe dcaa 66bf a924 13bf
000002c0: dcf2 ecbf fe19 28bf bcf9 9b3b c173 0cbd
000002d0: 5a0b 073e df9f 5b3d ab49 87bf 209e 9c3e
000002e0: 3441 d2bc ae48 0e3e 6ce6 aa3d 6329 2abf
000002f0: b0f4 f6be 4332 903d d492 9b3d 3a9f 883e
00000300: 4f3e 20bd 3b21 18be ecb7 78be 06da 04bd
00000310: 7626 a23d ae0c c2be a9ba 8cbe 9876 a23d
00000320: 98d2 413e b487 c2be b6b5 ec3d 4e08 b2be
00000330: e793 16be 337f be3d d07a 48bf bfef 693b
00000340: eabb 15bd b716 4b3e 9a46 dd3e c0fa 3abe
00000350: 7aae ccbd ccb3 9bbb e663 2cbc d423 7e3e
00000360: 4cb4 093f b314 843f 3543 2a40 81fc 8f3f
00000370: 273c 84bb d5e1 14be 5d43 c7bf 1b5d 0bbf
00000380: a768 e63e 2af1 c6be 9a04 87ba 364a 17be
00000390: 9a7f 0a3f db37 1f3f 271d 91bf 4d1d 5ebf
000003a0: 3f5f febd 511f b63e 13c3 db3e d0df de3d
000003b0: ac08 a7be edab 88bd de5c 86be 5def 9abb
000003c0: 9f90 6dbf d525 033f 6878 6d3f 3c45 923e
000003d0: 1722 d6bd 1e30 383d 7415 a43d d0a5 f8be
000003e0: 5bdc 04c0 dd48 3ebf 8908 403d 0fb7 4ebe
000003f0: 7370 7fbe f9cd 62bf c8aa 26c0 755a 5fbf
-0.17159742 0.1295619 -0.13556194 0.16541114 -0.025431689 -0.24936002 0.05101037 -0.47068322
-0.37577626 -0.19509274 0.07496404 0.26697508 -0.19374292 -0.7772761 -1.982764 -0.8934771
-0.0033699295 0.1042791 0.81097704 0.34988287 -0.67263865 0.24213424 0.095484816 0.37840927
0.07768698 -0.2935341 0.14435507 -0.24698485 0.087831765 -0.18841916 -0.32319555 0.3710118
1.8651875 1.2371297 -0.14398335 -0.35911363 -0.55418724 -0.6528284 -2.434965 -0.8136965
-4.3392676e-05 -0.060190167 -0.30012548 -0.53103894 -1.9888998 -1.0056326 0.0775183 -0.010261046
0.5564701 0.6504529 1.7673883 0.24639843 0.00051649194 0.1950317 -0.06630069 -0.2265964
-0.07862271 -0.30055574 -0.12251724 0.09079367 -0.27436936 -0.20637481 -0.5631175 -0.0999727
0.075273395 0.1415768 0.26526776 0.24462165 -0.5834386 -0.2865397 -0.15551965 -0.38475597
-0.42794007 0.39523494 -0.2398381 0.012852417 -0.03412401 0.36496234 -0.15149601 -0.34642035
0.07771083 -0.47844595 0.07809316 -0.28815818 0.68146896 0.18991531 -0.5114088 0.2270697
-0.043686315 -0.22436695 1.1800479 -0.06943858 -0.06131982 0.33571312 -0.14940462 0.010925983
0.4037985 -0.16076788 1.0796992 0.051200062 0.30361968 -0.3842309 -0.42590836 0.09822731
-0.12665935 -0.082810506 0.015303678 0.3256634 0.26264274 -0.65003425 -0.58347726 0.0047221556
-0.038416494 -0.3507214 0.23252973 0.12725665 -0.41632167 -0.0089874985 0.014244613 0.0009910059
-0.32890987 0.251983 0.42189375 0.021172412 -0.04147702 0.039910387 0.6095853 0.6769279
0.6727061 0.2974187 -0.030605577 0.37341213 -0.11123128 -0.28893942 -1.150272 0.08221621
0.023858614 0.09419579 0.22576477 -0.37401053 -0.51447797 0.04093691 -0.075507574 -0.32478577
0.13330351 0.3386581 1.1391001 0.45092773 -0.014204935 0.021627318 0.027619833 -0.29765573
-0.57876545 0.04291393 0.004498312 0.37157077 1.2126914 0.080773704 0.5271684 0.422677
0.08490091 0.13917086 -0.036386978 0.09596677 -0.11006744 -0.0136942435 -0.031557076 0.31318226
-1.0185332 -0.6270659 -1.8057349 -0.63645846 0.0074006137 -0.30632645 -0.9010446 -0.57477814
-1.8511615 -0.6566466 0.0047599953 -0.03429008 0.13187924 0.05361926 -1.0569357 0.3058939
-0.025665857 0.13894913 0.08344731 -0.664694 -0.48233557 0.07040837 0.075963646 0.2668398
-0.039121922 -0.14856426 -0.2428891 -0.032434486 0.07917492 -0.379003 -0.2748616 0.07932776
0.18927991 -0.37994158 0.11558096 -0.3477196 -0.14704858 0.09301605 -0.78312397 0.0035695878
-0.036556162 0.19832884 0.43217927 -0.18259716 -0.09994216 -0.004751658 -0.0105218645 0.24818355
0.53790736 1.0318817 2.660352 1.1248933 -0.004035491 -0.14539273 -1.5567433 -0.5443894
0.45001718 -0.3885587 -0.0010301054 -0.14774403 0.54100955 0.62194604 -1.1337022 -0.8676346
-0.124205105 0.35570768 0.42922267 0.108825326 -0.32623804 -0.06673417 -0.26242727 -0.0047282414
-0.927988 0.512296 0.9276185 0.28568447 -0.10455721 0.044967763 0.08011904 -0.48564005
-2.0759494 -0.7432993 0.04688314 -0.20187019 -0.2494524 -0.8859554 -2.6041737 -0.872474

bias f4 [64]
00000000: 2fca 893e ffab a03f e6d9 cbbe bcb7 acbf
00000010: 6279 453f 6173 69bf 077b 47be 95fa 16bf
00000020: 5364 1abd bc51 b73f 3377 f43f 03a9 a5be
00000030: 8f88 e63f 9aaa bd3f 1b8b 83bf 8870 813e
00000040: c49c d93e 0d6d 8d3f 0208 5f3f 533f d63f
00000050: 09b0 8c3f 7b2b 92bf a313 25bf 10e3 ac3f
00000060: e2c0 6fbc 8e43 eb3f 1869 97bf 235a 923f
00000070: 9c3f 05bf dbcb 3fbf b8ce b43f 4fbe cf3f
00000080: f10d ee3f b181 ab3f 1388 f23f 064a 363f
00000090: 0702 57be 7417 78bc 8342 3f3e d2e7 e5be
000000a0: 180d 693e c549 29bf 111b f33d c154 6ebf
000000b0: edc4 adbf 4aaf 9f3f 5b9e 923f f74c 54bf
000000c0: 4378 09bd 128d 503f 3645 babf 888e b6be
000000d0: d186 37bf 9d65 eb3f 42a2 85bf c62a db3f
000000e0: 7ced a7bf f91b ab3f 96f0 d13f d91c 9fbf
000000f0: 39c5 eebe c4be 98bf 36e0 573f c7d8 b3bf
0.26912066 1.2552489 -0.3981468 -1.3493571 0.7713834 -0.9119168 -0.19480525 -0.5897611
-0.037693333 1.4321818 1.9098877 -0.32355508 1.8010424 1.4817688 -1.0276827 0.25281167
0.42502415 1.1048905 0.87121594 1.6738075 1.0991222 -1.1419519 -0.6448309 1.3506794
-0.014633389 1.8379991 -1.1828947 1.1433758 -0.52050185 -0.74920434 1.4125586 1.6229953
1.8598005 1.3398954 1.8947777 0.712067 -0.20996867 -0.01514231 0.18677716 -0.44903427
0.22758901 -0.6612819 0.11870397 -0.93098074 -1.3575722 1.2475369 1.1454576 -0.8292994
-0.033561956 0.81465256 -1.4552372 -0.35655618 -0.7169009 1.8390385 -1.0440142 1.7122428
-1.311935 1.3367912 1.6401546 -1.2430679 -0.46634844 -1.1933217 0.84326494 -1.405053

weight f4 [64, 64]
00000000: d5a1 e7bb 8aeb 833e fcdb 97bf 7f44 02c0
00000010: b2d2 bc3e 4a77 2cbf 14f7 8fbf a02f 4dbf
00000020: 4aab a6be 0136 5b3f d450 553f 61f5 753d
00000030: 1471 5c3f 9a3e 0a3f 8ed9 71bf 0bb9 6ebe
00000040: 556c 6fbd 9a6d 003f ed1e f73e 0176 3a3f
00000050: 65c1 8e3e 4773 99bf 2368 e23d dee9 533f
00000060: d9fb d9be 6928 573f cd96 98bf 9831 113e
00000070: f953 be3d 9985 81bf eb25 ef3e 8eb8 ed3e
00000080: 9e04 343f 1387 c83e 9975 7b3f 7af9 853c
00000090: 5b65 7ebf 909a edbd dfc5 0a3d e70c dabd
000000a0: e3a7 133d d444 b5be 256e 78bf 5b8e b1bf
000000b0: 4834 a7bf 3a3a 533e 7a87 ff3e 08ed 54bf
000000c0: a615 92bf f93e 383e 0867 68bf 2c47 bdbb
000000d0: ff87 4abf f00a 8b3f fdb8 7cbf 4b3c 3a3f
000000e0: c50a c5bf 3d70 de3e dfd1 663f 80a0 77be
000000f0: c9a7 88bf e1e0 9ebe d332 1f3e c9d0 44bf
00000100: 454f 143e 462b 43be 5a25 1ac0 7072 21bf
00000110: afe4 35be 9727 0f3f ada6 94bf 0cc8 12c0
00000120: b1ca 93bd 666b 783f 1bb3 f63e 55fd 33bf
00000130: 6a70 593f 33d6 903d 7f7b 92be 4d33 1d3f
00000140: 6672 8f3f d23f 913d ccaf 5a3f 6055 333f
00000150: a517 5e3f e661 3dbf c152 fabe 8382 f83e
00000160: 5852 803f 7ffc e73e 57f3 6d3e 7b2f bc3e
00000170: 4ba8 fd3e dc33 31be b43f 9a3f a561 743e
00000180: 4d09 213f cb6a a83e 4366 0e3f 7734 93be
00000190: 6c46 193f 53bc 50bf e25d e53d ae75 32be
000001a0: 7d6c 30be 5ab4 d2bf 07c7 bbbf 0b0b b5bf
000001b0: b0c6 733e e9d6 4b3f a755 323f 779e ecbe
000001c0: c3f5 b3bf 13f8 5bbe 4005 483d 1644 383d
000001d0: 1cfa ae3d 89db 313f e454 18bf 1b8e 4a3f
000001e0: 0d44 9dbf 67b5 8bbc 761b b63e 8048 623d
000001f0: 11f9 2bbd 2965 0c3f 9bd5 f5bd 53c1 debd
00000200: 8901 803d 03f9 cd3e 0b72 e1bf c9f9 dfbf
00000210: 7718 963e 39f5 3abf 3d6b debf 1f76 a6bf
00000220: ea73 89be 756e 8b3f 4b86 833f eea3 d9bd
00000230: 99df 8a3f 1fa2 0a3f 0374 4bbf 2d7f 0bbc
00000240: 00b7 bbbc c8a9 a33e 58e5 853e 28a1 373f
00000250: c21d 3e3e 8f85 88bf 91d3 1ebe de06 0d3f
00000260: 57b2 b6be fa27 5d3f 7ec0 66bf 1ecb 543e
00000270: 4461 3fbf dee1 ffbf 709e 1c3f 20e0 d73e
00000280: c21b 2b3f 3992 6c3e 3051 8e3f f7ac 49bd
00000290: 1fce 66bf 07fb c9be 1656 62bc f1ac 6dbe
000002a0: ce0d 533d f06f aabf 0438 aebf 59e6 9dbf
000002b0: ee88 92bf 4a9f a53e f702 c13e fdf9 79bf
000002c0: 9722 e0bf 6a7a 123e d84b 6ebf a379 2cbe
000002d0: b52f 22bf 0525 803f 8376 51bf 971f 523f
000002e0: 6803 e0bf f280 043f 13a2 573f 96f1 93bf
000002f0: b93d 9cbf 5d0e 28bf a0a1 703e 1b0c 85bf
00000300: 93c6 88bd e3cc 893d ff04 e43f fcea 623f
00000310: 1859 cfbe 8094 3c3e 43e1 c13f 086e 633f
00000320: 912c 0e3e 8b99 dbbe 524e 30bf 21f2 ad3e
00000330: 889a 53bf da5a 34be 9976 893f 4abb f03e
00000340: 61f9 bebe af79 b0be 9b6f 273e 6b2d 96bf
00000350: 6f74 1dbe 00b0 923e 8f5f 07be 142a fcbe
00000360: e7af 003f f519 30bf 1ae0 2b3f f4be 59be
00000370: 54de 493f a2de 873f 8628 b4be 29c2 a2be
00000380: 644f 57bf fa07 8cbe ad33 b5be ee1f 9e3e
00000390: 0f7d fe3e 2b2b 023f e508 bb3e a9be bb3e
000003a0: 7cd1 a63e 7b4c 66be fc3a 933f 4b44 c23f
000003b0: f35a 223f 33c3 cfbe f5a1 833e 4630 723e
000003c0: bc5a 2d3f eb63 9abe 687a 993e 8e96 183f
000003d0: 3eb1 1f3f ba00 a8be 9d4b 453f 757d 08bf
000003e0: 44b6 c83f 2079 c8be a81a 37bf 4ce5 8d3f
000003f0: fc92 193f 332f c43e 5e53 733e 76c5 6d3f
-0.0070688524 0.2576564 -1.1864009 -2.0354307 0.36879498 -0.6736952 -1.1247277 -0.80150795
-0.32552558 0.8562928 0.8332646 0.060048465 0.86110044 0.5400177 -0.9447259 -0.23312776
-0.058452923 0.5016724 0.48265782 0.7283631 0.27881923 -1.1988305 0.11055019 0.8277873
-0.42574957 0.84046036 -1.1921021 0.14179075 0.0929336 -1.0118896 0.46708617 0.46429867
0.70319545 0.39165553 0.98226315 0.016354311 -0.99373406 -0.11601746 0.03388011 -0.10646992
0.03604878 -0.35404074 -0.9704307 -1.3871568 -1.306283 0.2062768 0.49908048 -0.8317418
-1.1412857 0.17992772 -0.90782213 -0.0057763066 -0.79113764 1.0862713 -0.9871977 0.7274825
-1.5393912 0.43445006 0.9016399 -0.2418232 -1.0676204 -0.31030944 0.15546732 -0.7688108
0.14483364 -0.19059476 -2.4085298 -0.6306524 -0.17763017 0.55919784 -1.1613365 -2.29346
-0.07216395 0.97038877 0.48183522 -0.7030843 0.84937155 0.07072105 -0.28609845 0.61406404
1.1206787 0.07092251 0.85424495 0.70052147 0.8675483 -0.73977506 -0.4889126 0.48537073
1.0025129 0.45309827 0.23237358 0.36754975 0.4954246 -0.17304939 1.2050691 0.23865373
0.62904817 0.32893977 0.5562479 -0.28750965 0.5987308 -0.8153736 0.11199547 -0.17427704
-0.17228885 -1.6461289 -1.4670113 -1.4143995 0.23806262 0.796248 0.69661945 -0.4621465
-1.4059376 -0.21481352 0.04883313 0.044986807 0.08543798 0.6947561 -0.5950453 0.79123086
-1.2286392 -0.017054273 0.35567826 0.055244923 -0.041985575 0.5484186 -0.12003633 -0.108767174
0.06250293 0.40229043 -1.7612928 -1.7498103 0.2931554 -0.7303043 -1.7376477 -1.3004798
-0.26846248 1.0893084 1.0275358 -0.1062697 1.0849487 0.5415363 -0.79473895 -0.008514208
-0.02291441 0.3196547 0.26151538 0.7173028 0.18566039 -1.0665759 -0.15510394 0.55088603
-0.35682938 0.86389124 -0.9013747 0.20780608 -0.7475779 -1.9990804 0.61179256 0.4216318
0.6683923 0.23102655 1.1118526 -0.049237218 -0.90158266 -0.3944933 -0.01381447 -0.23210503
0.051526837 -1.3315411 -1.3610845 -1.2335922 -1.1448038 0.3234809 0.37697574 -0.97647077
-1.7510556 0.1430451 -0.9308448 -0.16843276 -0.63354045 1.0011297 -0.8182146 0.8207945
-1.750104 0.51759255 0.8423168 -1.1558101 -1.2206336 -0.65646917 0.23499155 -1.0394319
-0.066785 0.06728532 1.7814025 0.8863981 -0.4049766 0.18416023 1.514687 0.8883977
0.13884188 -0.4289058 -0.6886951 0.33973792 -0.8265767 -0.17612782 1.0739318 0.4701789
-0.37299636 -0.34467837 0.16351168 -1.173261 -0.15376447 0.28649902 -0.13220046 -0.49250853
0.50268406 -0.6878961 0.67138827 -0.21264249 0.7885487 1.0614817 -0.35187167 -0.31788757
-0.84105515 -0.27349836 -0.35390988 0.30883735 0.49704787 0.5084712 0.36530223 0.366689
0.325817 -0.22490112 1.1502376 1.5177091 0.6342003 -0.40578613 0.257095 0.23651227
0.67716575 -0.30154356 0.299762 0.5960473 0.62379825 -0.32813054 0.770685 -0.5331643
1.5680623 -0.3915491 -0.7152505 1.1085601 0.59989905 0.3831726 0.23762271 0.92879426

bias f4 [64]
00000000: 319f 9c3f 4400 783f 5167 9e3f bee0 4cbf
00000010: 9ce3 10be a73c a63f 0eb7 9f3f 2c34 05bf
00000020: 5664 913f 2d29 b53f 6d4e a63f 93dc 7d3f
00000030: ac41 803f 00fd b03f 34ce ac3f d64b 5cbf
00000040: 967b 923f ee3a 9a3f 5d62 973f 9a0d a53f
00000050: a074 813f 19e6 9f3f 20b7 d1bb 626b a93f
00000060: ea3c b23f f0ae 993f 0283 2cbe 0f9b a63f
00000070: f543 8a3f 1711 a53f 7ce2 a23f 2722 823c
00000080: 058e 5bbf 2663 963f 4500 393c a4a9 9b3f
00000090: ad55 873f 074e 71bf 18e5 7abf 256f 2fbd
000000a0: d325 823f 0bbe 9b3f a0e6 a33f 9cbe 913f
000000b0: 1aa4 0bbf 3d1a 17bf 82d9 e8bd 1517 70be
000000c0: 6fed 25bf 03aa d8bd dbd7 8c3f 5e5b 873f
000000d0: 7eda 31bf 7412 a63f 35c6 70bf 22f1 3abd
000000e0: 345d b7bd 230d a23f 0ec4 693f e4be a53f
000000f0: ebe2 613f d698 8d3f 80d6 4abc 8210 9c3f
1.2236081 0.96875405 1.237528 -0.8003043 -0.14149326 1.298726 1.2477739 -0.5203273
1.1358745 1.4153191 1.2992684 0.99164695 1.0020041 1.382721 1.3500428 -0.86053216
1.1443965 1.2049234 1.1826893 1.2894776 1.0113716 1.2492095 -0.006400004 1.3235896
1.392484 1.2006512 -0.1684685 1.301607 1.0801989 1.289584 1.2725368 0.015885426
-0.8576358 1.1749008 0.011291568 1.2161145 1.0573021 -0.94259685 -0.9800582 -0.042830605
1.0167793 1.2167372 1.2804756 1.1386294 -0.54547274 -0.5902441 -0.11369611 -0.23446305
-0.6481542 -0.10579302 1.1003374 1.0574758 -0.6947402 1.2974381 -0.9405244 -0.04564012
-0.08953324 1.2660259 0.9131478 1.294888 0.88236874 1.1062267 -0.012380242 1.2192538

weight f4 [3, 64]
00000000: fa34 b93f a6c2 6d3e 2340 d43f 3ab5 d9bf
00000010: 3994 05bf adb9 c73f eb27 e03f ae66 69bf
00000020: 8a0e c53f a441 0040 4a88 ee3f f64e b33f
00000030: 5d02 fa3f c676 7f3f 5457 ea3f 2803 9cbf
00000040: 4de2 bb3f 5532 bb3f c125 9b3f e215 e53f
00000050: 3003 bf3f 7e08 c93f 3056 4dbc e351 d23f
00000060: 0791 db3f 1c6c e83f 4092 e3bd f9c3 da3f
00000070: b5b9 9d3f 2447 c03f fb32 c43f 4952 cdbb
00000080: 1b44 56bf 9e8d 943f b0b0 da3c fc2f e73f
00000090: 1282 b83f 93db e1bf 6e87 04bf 284d 04bc
000000a0: 1450 a93f 2f3d c33f aa5b cf3f b5e2 623f
000000b0: 9760 81bf 7517 b8bf 5459 333d 8a64 61bd
000000c0: 75cc a9bf 85c7 19bd 63f9 ab3f dd6b b63f
000000d0: 52ec 23bf d61a bf3f 8c86 c7bf 34fc 5b3d
000000e0: d54b d53d 3050 973f 9ee1 213f a4fd e03f
000000f0: b938 c13e 9f11 d83f dc8f 843f 711a d93f
00000100: f349 d53f f78b 4f3f a568 ea3f 7d70 95be
00000110: 10b0 bebf 99bd a83f 7e0e db3f dcf9 4bbf
00000120: 9e35 ca3f c541 cf3f 7f3b fa3f 25cb d43f
00000130: b704 52bf 4873 863f 554a c33f d2bf 89bf
00000140: e0c2 a73f 6ddd 893f 5695 dd3f 0f39 f93f
00000150: 4ab9 b33f 2999 aa3f 354f c83c 20ef bc3f
00000160: 5d98 ca3f b6d3 cc3f 8162 21bd 0fef be3f
00000170: 6068 c43f 0310 b73f 0804 df3f 9bb8 bfbc
00000180: 0e16 8abe 08fb b53f e7d1 11bc 9bd5 a63f
00000190: a245 cd3f 548f bdbf c394 50bf 3f05 0bbc
000001a0: fa9a de3f f92c e13f 87fb c63f 7875 bb3f
000001b0: a0b8 84bf 52e5 6cbf 3d76 89bc efae fbbc
000001c0: 9101 bfbf 956d 55bd f657 af3f d7b7 e73f
000001d0: de16 58bf 55ff e83f 1fbb b0bf bbc6 f1bc
000001e0: 0a12 d6bd 9984 b03f dba9 c23f a871 f03f
000001f0: df72 8c3f c0fd ee3f 2af4 aabf 3f8f dd3f
00000200: 0ad5 b43f cc6a 773f 01a1 d93f 81b0 eabf
00000210: 5746 b3bf c11b c13f cec7 cb3f 1e9f 57bf
00000220: 70cd c43f 5cea db3f b52f d43f 39f3 c13f
00000230: 49f0 873f 1114 9d3f e587 ae3f d898 79bf
00000240: 5210 b23f b48c be3f e8e3 b13f 79fc cf3f
00000250: 683f ba3f 8cdd d43f 40d3 fd3c 6474 d53f
00000260: b73f d13f d344 d33f 4cfd f33c f720 c83f
00000270: f972 ac3f f431 b03f 4678 d23f 140c 323c
00000280: e76e 0bbf 0888 b43f ad94 cebc cd32 ce3f
00000290: f425 ba3f 78a5 e6bf 940b 06bf 39d1 4dbc
000002a0: 6cfa c23f bf9f c03f dbcf c53f 77c3 a83f
000002b0: 223b a0bf 55b3 7fbf 2064 64bd 5af3 5f3e
000002c0: c94c 82bf 2c52 1dbd 9936 bd3f 26d7 bd3f
000002d0: 6296 76bc f413 d03f 79f6 09c0 a830 6dbd
000002e0: a105 7bbd a564 903f c201 9d3f bb79 df3f
000002f0: a4b0 663f 39cc d93f 545a d93d fe05 c23f
1.4469292 0.23218784 1.6582073 -1.7008431 -0.52179295 1.5603539 1.7512182 -0.911723
1.5395062 2.0040064 1.8635342 1.4008472 1.9531971 0.9979061 1.83079 -1.2188463
1.4678437 1.4624735 1.2120897 1.7897303 1.4922848 1.5705717 -0.012532756 1.643124
1.7153634 1.8157992 -0.11111879 1.7091056 1.2322298 1.502171 1.5328058 -0.0062659127
-0.8369767 1.1605718 0.02669558 1.8061519 1.4414694 -1.7645134 -0.5176915 -0.008075036
1.3227563 1.5253047 1.6199849 0.8862718 -1.0107602 -1.4382159 0.04378636 -0.055027522
-1.326552 -0.037543792 1.3435482 1.4251667 -0.6403247 1.4930065 -1.5587935 0.053707317
0.104148544 1.1821346 0.6323489 1.7577405 0.37738588 1.6880378 1.0356402 1.6961194
1.6663193 0.81072944 1.8313185 -0.29187384 -1.489748 1.3182861 1.7113798 -0.7967813
1.5797613 1.6191946 1.9549407 1.6624495 -0.82038444 1.0503931 1.5257059 -1.0761664
1.3106346 1.0770699 1.7311199 1.9470538 1.4040921 1.3327991 0.024451831 1.4760475
1.5827748 1.6002109 -0.03940058 1.4916705 1.5344353 1.4301761 1.7423105 -0.023403456
-0.2696995 1.4217234 -0.008900142 1.3033937 1.6036875 -1.4809365 -0.8147699 -0.0084851375
1.7391045 1.759185 1.554551 1.4645224 -1.0368843 -0.92537415 -0.016780013 -0.030723063
-1.4922353 -0.05210646 1.3698719 1.8102978 -0.8440989 1.8202921 -1.3807105 -0.029513707
-0.104526594 1.3790466 1.5208086 1.8784685 1.0972556 1.8671188 -1.3355763 1.730934
1.4127514 0.96647334 1.700226 -1.8335115 -1.4005841 1.5086595 1.592035 -0.8422717
1.5375195 1.7180896 1.6577059 1.5152351 1.0620204 1.2271749 1.3635222 -0.97498846
1.391123 1.4886689 1.3897676 1.6248924 1.45506 1.6630111 0.03098452 1.6676145
1.6347569 1.6505378 0.029783867 1.563506 1.3472587 1.3765244 1.6442955 0.010867137
-0.544661 1.4104013 -0.025217379 1.6109253 1.4542832 -1.8019247 -0.52361417 -0.01256209
1.5232673 1.5048751 1.5454057 1.3184651 -1.2518046 -0.99883014 -0.05575955 0.21870175
-1.0179683 -0.038408443 1.4782287 1.4831283 -0.0150505025 1.6256089 -2.1556685 -0.05790773
-0.061284665 1.1280714 1.2266161 1.7459024 0.9011328 1.7015449 0.10612932 1.5158079

bias f4 [3]
00000000: 288e ed3e de1f 4e3f 218a 733f
0.4639752 0.80517375 0.95132643
