model/good/cartpole_4391_record_133.pth (torch, 22824 bytes, 6 tensors)

weight f4 [64, 5]
0.4861833 0.7942834 3.9290607 1.0741327 -0.03830351 -0.2309564 -0.12074371 -0.2958731
-0.1615347 0.028439818 -0.7891729 0.54348093 0.47765195 0.7290074 -0.032507494 0.039429136
-0.13962072 -0.024411067 -0.30187026 0.04135494 0.05406118 0.78377193 0.65141404 0.32355136
0.0017423793 -0.6490777 -0.848955 -0.4419434 0.64397734 -0.068524435 -0.05603808 0.0031415438
0.5986947 -0.074672505 -0.011845362 -0.5687973 0.6016239 3.9659116 1.7479324 -0.1720853
-0.5298059 -0.42698634 -0.4884554 -0.13726819 -0.07596727 1.5734547 0.15605853 0.63919425
-0.13514863 0.03600961 -0.039172232 0.22618884 0.10645175 0.3689811 -0.017167788 0.12254653
-0.3849015 -3.157431 -1.1591917 0.116393946 1.4753656 0.81691265 4.245958 0.70784104
-0.004680778 -0.20854254 0.088105895 -0.7245496 0.19389433 0.0036417525 0.6966215 -0.41172174
-1.0510375 -0.25472537 0.011192774 -1.052239 -0.7134464 -3.9327023 -1.04433 0.13908446
0.07815593 -0.44479653 -0.38713616 -0.3399403 0.056923196 0.35354468 -0.28978494 -2.211564
-1.1068488 0.253138 -1.4819292 0.17022456 1.7263497 1.3676413 -0.3869668 -0.060047697
0.080180965 -0.93318045 -0.1685519 0.01781459 -1.5355784 -0.4035374 1.5722075 0.31265488
0.10976991 -0.2670249 0.33094501 2.793618 0.8198996 -0.12372788 -1.4404886 -0.7271154
-2.689179 -1.2667931 0.0009341641 0.22997965 -0.35741997 -3.2214582 -0.8181551 0.106707364
0.8795512 -0.290224 -1.1326547 -0.3091106 0.09174346 -0.5635988 -0.4786721 0.3355538
-0.2048108 -0.044028267 0.47889018 -0.15379933 -0.5302263 -0.3119925 0.05963166 -0.09538405
-0.23038465 0.03770853 -0.3014596 0.023168173 -0.55887973 0.09831963 0.12417504 -0.026445033
0.017025141 1.4137714 0.513211 1.2677116 0.17882621 -0.019942136 1.6245251 -0.46988824
0.34813714 -0.2831593 -0.019512415 1.0453953 0.9065948 4.272104 0.75745183 -0.009781398
0.97567797 1.2105824 4.2575436 1.0141929 -0.0030962764 -1.3780609 -0.6723021 -1.2964422
-0.300087 -0.12854336 -0.51270235 -0.9854028 -3.4292655 -1.631226 0.029166698 1.2947526
0.14434989 0.5253784 -0.3052463 0.06284949 -0.32001263 0.4010639 3.4193866 0.88821596
-0.05236625 0.8981606 0.5108613 3.6124902 0.51374924 -0.026385244 0.030580873 0.65046656
4.011401 0.8817895 -0.09159101 -0.09396244 0.09763758 -0.51770335 -0.06751402 0.02575514
0.3013265 -0.015030729 -2.3823829 -1.0037022 0.1929257 0.4876946 0.12269271 -0.8708935
-0.30649 0.03501301 0.1266129 -0.1356305 -0.49564776 -0.28417116 -0.10048137 1.1925251
0.1942229 0.6410282 0.15689921 -0.00293353 -0.5164116 0.07103799 0.43148208 -0.2693404
-0.0809404 1.2245545 0.15099375 1.350688 -0.22522639 -0.10704397 1.3282174 -0.3087765
-1.1463006 -1.0415909 0.021250095 1.2133191 0.6395792 2.0653043 -0.034295276 0.068062395
-0.13546216 0.38262963 -0.7395941 0.07190011 0.004931597 0.54475504 -0.44919676 0.660661
-0.28051195 -0.006036307 -0.05233595 -0.21336022 -0.0061236094 -0.250327 0.03013728 0.30659068
00000000: 04ed f83e 2856 4b3f bb75 7b40 2e7d 893f
00000010: 24e4 1cbd d67f 6cbe 7a48 f7bd ae7c 97be
00000020: 5a69 25be 9ffa e83c 3c07 4abf 9121 0b3f
00000030: cc8e f43e 3ba0 3a3f 9426 05bd 7280 213d
00000040: bcf8 0ebe b8f9 c7bc bd8e 9abe cc63 293d
00000050: 426f 5d3d 47a5 483f 12c3 263f 86a8 a53e
00000060: 8c60 e43a f529 26bf 1d55 59bf 6846 e2be
00000070: b3db 243f 8a56 8cbd 3088 65bd 5ce2 4d3b
00000080: 0e44 193f e6ed 98bd 0d13 42bc b39c 11bf
00000090: 0604 1a3f 7fd1 7d40 40bc df3f 2137 30be
000000a0: 5ca1 07bf f49d dabe d416 fabe 0890 0cbe
000000b0: ba94 9bbd f766 c93f cfcd 1f3e 3ca2 233f
000000c0: 6764 0abe d07e 133d 1073 20bd 0c9e 673e
000000d0: 6003 da3d 17eb bc3e 76a3 8cbc adf9 fa3d
000000e0: cf11 c5be 5913 4ac0 6560 94bf f35f ee3d
000000f0: c8d8 bc3f 3021 513f e3de 8740 1235 353f
00000100: 3661 99bb 2d8c 55be dd70 b43d 157c 39bf
00000110: 3c8c 463e 78aa 6e3b c955 323f 31cd d2be
00000120: 6688 86bf 5d6b 82be e661 373c c4af 86bf
00000130: 6ca4 36bf 65b1 7bc0 9bac 85bf 286c 0e3e
00000140: 3710 a03d 5fbc e3be b636 c6be a80c aebe
00000150: 4c28 693d cf03 b53e b15e 94be 448a 0dc0
00000160: 39ad 8dbf 4e9b 813e dbaf bdbf 594f 2e3e
00000170: 07f9 dc3f df0e af3f 8320 c6be 93f4 75bd
00000180: eb35 a43d eae4 6ebf df98 2cbe e7ef 913c
00000190: d58d c4bf 749c cebe 183e c93f 4d14 a03e
000001a0: 0ccf e03d 7db7 88be a071 a93e a3ca 3240
000001b0: f1e4 513f 0b65 fdbd ee61 b8bf 3c24 3abf
000001c0: 821b 2cc0 4726 a2bf b1e2 743a c97f 6b3e
000001d0: c0ff b6be 5f2c 4ec0 9d72 51bf 6489 da3d
000001e0: 442a 613f 3d98 94be d4fa 90bf bf43 9ebe
000001f0: ffe3 bb3d 0348 10bf 8214 f5be b5cd ab3e
00000200: ecb9 51be fc56 34bd 1831 f53e 927d 1dbe
00000210: e9bc 07bf 7bbd 9fbe 5440 743d b658 c3bd
00000220: f4e9 6bbe 4274 1a3d ea58 9abe 2ecb bd3c
00000230: be12 0fbf cd5b c93d 7c4f fe3d 41a3 d8bc
00000240: 4f78 8b3c 76f6 b43f cc61 033f 6044 a23f
00000250: 381e 373e b15d a3bc 70f0 cf3f 3195 f0be
00000260: 083f b23e 41fa 90be 80d8 9fbc 83cf 853f
00000270: 9916 683f 13b5 8840 5de8 413f 2842 20bc
00000280: 08c6 793f 5df4 9a3f cc3d 8840 13d1 813f
00000290: e6ea 4abb 4d64 b0bf fe1b 2cbf d1f1 a5bf
000002a0: 01a5 99be dfa0 03be 7640 03bf 5c43 7cbf
000002b0: 1679 5bc0 03cc d0bf 00ef ee3c 74ba a53f
000002c0: 75d0 133e 337f 063f 3e49 9cbe 3cb7 803d
000002d0: b2d8 a3be 3f58 cd3e 3bd7 5a40 1f62 633f
000002e0: fe7d 56bd daed 653f cec7 023f 0a33 6740
000002f0: 1285 033f de25 d8bc bd84 fa3c fa84 263f
00000300: 665d 8040 f5bc 613f 1194 bbbd 616f c0bd
00000310: 36f6 c73d 3588 04bf ca44 8abd 72fc d23c
00000320: 7847 9a3e 7243 76bc f678 18c0 5079 80bf
00000330: 518e 453e 1bb3 f93e 5146 fb3d e0f2 5ebf
00000340: 42ec 9cbe cd69 0f3d d0a6 013e b9e2 0abe
00000350: 8bc5 fdbe e27e 91be 2dc9 cdbd aaa4 983f
00000360: 5ee2 463e 6d1a 243f 30aa 203e 7740 40bb
00000370: 8d33 04bf 5e7c 913d 38eb dc3e fce6 89be
00000380: 15c4 a5bd 34be 9c3f 1b9e 1a3e 58e3 ac3f
00000390: bfa1 66be de39 dbbd 0703 aa3f f417 9ebe
000003a0: fab9 92bf da52 85bf ae14 ae3c 0a4e 9b3f
000003b0: 76bb 233f f22d 0440 3479 0cbd 4c64 8b3d
000003c0: 98b6 0abe 08e8 c33e 0a56 3dbf 5d40 933d
000003d0: 3c99 a13b 1175 0b3f 1efd e5be 1421 293f
000003e0: 439f 8fbe 37cc c5bb 395e 56bd 1a7b 5abe
000003f0: 8fa8 c8bb dc2a 80be 75e2 f63c 74f9 9c3e

bias f4 [64]
-1.3431981 1.9958287 1.1293846 2.0260386 0.52173406 -2.0082524 0.9600922 0.5755285
1.7417443 -0.85226285 0.85655 -0.115643226 -1.7245988 0.8966391 1.4714112 -0.8281264
0.4282461 0.1426036 0.7540109 1.1567168 -0.14660344 -1.4601291 -1.4355391 -0.94254726
1.7476388 1.9370074 1.4648212 1.6626416 1.5006568 -2.0295255 0.3012078 -0.82788223
-1.1348094 -1.3517345 -1.075193 -2.2876265 -1.4403075 -1.3508646 -0.5801537 1.9407507
-1.7928218 1.9498904 1.3083073 -1.5378382 1.4968553 -0.4104602 0.9191911 -1.5306664
1.9446807 -0.21232012 1.8658749 2.014312 -1.3325404 -0.58700705 -1.1764807 1.7701274
1.7267519 1.496428 1.9229631 -1.4860466 -1.1946828 2.0502114 0.8774006 0.5194097
00000000: eaed abbf 5177 ff3f ad8f 903f 9eaa 0140
00000010: 5d90 053f 3587 00c0 9ac8 753f d655 133f
00000020: 7af1 de3f e62d 5abf dc46 5b3f 5bd6 ecbd
00000030: a7bf dcbf 248a 653f 3457 bc3f 1700 54bf
00000040: 1343 db3e ae06 123e dc06 413f 4c0f 943f
00000050: 361f 16be 83e5 babf bfbf b7bf c74a 71bf
00000060: a1b2 df3f dcef f73f 437f bb3f 71d1 d43f
00000070: 8615 c03f bfe3 01c0 e937 9a3e 17f0 53bf
00000080: 6f41 91bf a305 adbf ed9f 89bf 7968 12c0
00000090: ff5b b8bf 22e9 acbf f484 14bf 856a f83f
000000a0: 2f7b e5bf 0296 f93f 9d76 a73f e2d7 c4bf
000000b0: f498 bf3f d727 d2be 1c50 6b3f e0ec c3bf
000000c0: 4ceb f83f 726a 59be fdd4 ee3f 7dea 0040
000000d0: af90 aabf 1846 16bf eb96 96bf 8993 e23f
000000e0: 3506 dd3f f48a bf3f a823 f63f c636 bebf
000000f0: 5eeb 98bf aa36 0340 539d 603f 09f8 043f

weight f4 [64, 64]
-2.540625 0.9276529 0.10776183 1.0393522 -0.083150364 0.09221279 0.22858208 -0.009080954
0.69323 -0.61523914 0.055554334 0.015640907 -2.0546265 -0.03491034 0.9018995 -0.16871788
0.18255958 -0.27103028 -0.13726957 0.21219987 -0.1270713 -1.6295586 -2.1562066 -0.7410361
0.66257405 0.86949056 0.21676499 0.8203784 0.3580885 -1.4076266 -0.32890883 -0.7512084
-0.49625778 -0.9615712 -0.42724717 -5.1018143 -1.040334 -2.6370587 -0.6420323 0.75704724
-0.7741012 0.7895303 0.25400016 -2.8075519 0.55841064 -0.27182686 -1.4858329 -0.48778298
0.81610507 -0.31917435 0.8739366 0.91737413 -1.2217298 -0.22151528 -1.2779467 0.6290723
0.49190092 0.1981471 0.8816697 -0.5311368 -0.31135434 0.6836799 -1.1227572 0.1107937
-0.08043749 -0.06607213 0.0069684056 -0.06684843 0.06297536 -0.11931884 -0.1457746 -0.087769546
0.018421445 -0.14728993 -0.054158017 -0.032267112 0.03736928 0.071106456 -0.04917338 -0.01934496
-0.097016364 0.009240237 0.010082549 0.047445502 -0.083292395 0.063770324 -0.12542506 -0.046802066
-0.09711617 -0.129599 0.007913541 0.015643585 -0.15094647 0.015287789 -0.092114195 -0.025725143
0.09494137 -0.029440224 -0.12225373 -0.07052656 -0.03942472 -0.059248537 0.040158108 -0.036172934
0.045969073 -0.1473532 -0.004190091 -0.036866654 0.048163917 -0.061859474 -0.10970657 0.030886607
-0.036606673 -0.10743448 -0.06866547 -0.17405382 0.046959173 -0.017239476 -0.11988981 0.011468197
-0.04944654 -0.026738688 0.04558982 -0.07696204 -0.0928614 -0.03800409 0.07260234 -0.16174385
-3.0476272 0.778812 0.04948367 0.84894514 -0.06998948 -0.43720302 0.09888403 0.26788017
0.6015087 -0.7135998 -0.3456557 0.17960781 -1.5234883 -0.2840501 0.92317444 -0.52421373
-0.04311102 0.11577931 0.024324821 0.30652815 0.13044283 -1.9698856 -2.3504899 -0.39190266
0.86125565 0.7867727 0.38881072 0.60155904 0.102562405 -1.5217491 -0.26868224 -0.58149916
-0.35343072 -1.2138013 -0.3684854 -4.2702994 -1.1435971 -3.173166 -0.60267127 0.72221875
-1.2676471 0.78309554 0.31459567 -2.0793545 0.3223025 -0.07231281 -1.0166838 -0.6431957
0.6850864 -0.26769662 0.7532904 0.87178797 -1.826335 -0.19246848 -1.6379133 0.92510986
0.57631606 0.51480395 1.2094848 -1.1059054 -0.055547047 0.59395665 -1.2145604 -0.10958175
-2.3917592 0.7702595 0.2774754 0.8814981 0.16078918 -1.1664375 0.13238719 -0.009112551
0.41028827 -0.5348152 0.13574497 -1.2713569 -1.723396 0.15295048 0.5313587 -1.3931038
-0.017288651 -0.60546327 -0.09743903 0.27564666 -0.37706357 -1.5286515 -3.365681 -2.0809505
0.83518136 0.60565424 0.23587684 0.5554003 0.542165 -2.0894928 -0.107718945 -0.41807842
-0.14288114 -1.0470946 -1.7957884 -5.102154 -0.87638843 -2.4394073 -0.46111098 0.9880455
-0.09936167 0.78890634 0.32742807 -3.0157177 0.6943248 -0.48409858 -1.1896822 -0.31600052
1.0889981 0.0136583485 0.8981256 0.7798223 -1.3736665 -0.46850467 -0.94488865 0.8243939
0.6453395 0.35265392 1.1038259 -1.3399239 0.21983309 0.70219576 -1.8245703 0.67450356
00000000: 9a99 22c0 a97a 6d3f 3cb2 dc3d 7e09 853f
00000010: bd4a aabd 0fda bc3d 6c11 6a3e 48c8 14bc
00000020: 8577 313f 5080 1dbf f18c 633d 5c21 803c
00000030: 007f 03c0 25fe 0ebd e3e2 663f 61c4 2cbe
00000040: e6f0 3a3e 7bc4 8abe 6590 0cbe ec4a 593e
00000050: fb1e 02be 6095 d0bf 4aff 09c0 8bb4 3dbf
00000060: 749e 293f ef96 5e3f a4f7 5d3e 5204 523f
00000070: 6057 b73e 1c2d b4bf bd66 a8be 324f 40bf
00000080: 8015 febe 8829 76bf 24c0 dabe 1042 a3c0
00000090: aa29 85bf 92c5 28c0 3b5c 24bf d9cd 413f
000000a0: 7f2b 46bf a81e 4a3f 4f0c 823e eeae 33c0
000000b0: 00f4 0e3f e42c 8bbe c62f bebf b1be f9be
000000c0: 43ec 503f d26a a3be 4fba 5f3f 08d9 6a3f
000000d0: a461 9cbf e7d4 62be c293 a3bf e20a 213f
000000e0: 70da fb3e 13e7 4a3e 1bb5 613f 95f8 07bf
000000f0: d669 9fbe a505 2f3f 82b6 8fbf cfe7 e23d
00000100: 69bc a4bd d350 87bd 3957 e43b d4e7 88bd
00000110: 3af9 803d 705d f4bd f045 15be 85c0 b3bd
00000120: 92e8 963c 2cd3 16be ccd4 5dbd 852a 04bd
00000130: 8810 193d 43a0 913d 076a 49bd 5279 9ebc
00000140: 84b0 c6bd 5d64 173c 4731 253c 3756 423d
00000150: 3495 aabd 049a 823d 6d6f 00be 86b3 3fbd
00000160: d8e4 c6bd 9ab5 04be cca7 013c fa26 803c
00000170: b691 1abe a279 7a3c 5ea6 bcbd 89bd d2bc
00000180: 9f70 c23d a02c f1bc 2a60 fabd 3b70 90bd
00000190: d17b 21bd 98ae 72bd d47c 243d 122a 14bd
000001a0: 114a 3c3d c2e3 16be 084d 89bb 7d01 17bd
000001b0: 8747 453d 5c60 7dbd d7ad e0bd e905 fd3c
000001c0: e1f0 15bd 9c06 dcbd 7ba0 8cbd 2a3b 32be
000001d0: 4358 403d cd39 8dbc ca88 f5bd 1be5 3b3c
000001e0: 7588 4abd 180b dbbc 64bc 3a3d 469e 9dbd
000001f0: 1e2e bebd 2daa 1bbd 89b0 943d 2ea0 25be
00000200: 530c 43c0 3960 473f 64af 4a3d 7854 593f
00000210: a556 8fbd 13d9 dfbe b683 ca3d 9727 893e
00000220: 79fc 193f 7aae 36bf c9f9 b0be 1ceb 373e
00000230: aa01 c3bf 046f 91be 2955 6c3f df32 06bf
00000240: 2e95 30bd b41d ed3d d944 c73c 42f1 9c3e
00000250: ce92 053e 3625 fcbf 6d6e 16c0 77a7 c8be
00000260: 407b 5c3f f069 493f 3312 c73e c6ff 193f
00000270: 3d0c d23d adc8 c2bf b890 89be 21dd 14bf
00000280: dff4 b4be d75d 9bbf 1eaa bcbe 4ba6 88c0
00000290: 6461 92bf 2715 4bc0 aa48 1abf 54e3 383f
000002a0: 4342 a2bf f378 483f af12 a13e 2514 05c0
000002b0: d504 a53e bd18 94bd b222 82bf 79a8 24bf
000002c0: d361 2f3f 880f 89be a4d7 403f 7f2d 5f3f
000002d0: 58c5 e9bf 7516 45be 25a7 d1bf 00d4 6c3f
000002e0: 7389 133f 31ca 033f 66d0 9a3f 4f8e 8dbf
000002f0: 4d85 63bd 8b0d 183f b776 9bbf 666c e0bd
00000300: 9512 19c0 ba2f 453f 4111 8e3e dca9 613f
00000310: eba5 243e d34d 95bf 8290 073e cf4c 15bc
00000320: 4e11 d23e a6e9 08bf bb00 0b3e d3bb a2bf
00000330: 3d98 dcbf 0d9f 1c3e 2007 083f 3a51 b2bf
00000340: eea0 8dbc a4ff 1abf 1d8e c7bd 8f21 8d3e
00000350: 7a0e c1be daaa c3bf 5167 57c0 4b2e 05c0
00000360: 72ce 553f 280c 1b3f b389 713e b72e 0e3f
00000370: 53cb 0a3f 40ba 05c0 c09b dcbd 600e d6be
00000380: 6f4f 12be 3207 86bf 65dc e5bf d844 a3c0
00000390: fe5a 60bf 401f 1cc0 bd16 ecbe 8df0 7c3f
000003a0: 227e cbbd c4f5 493f a7a4 a73e 8501 41c0
000003b0: 45bf 313f c5db f7be 8247 98bf d2ca a1be
000003c0: 4a64 8b3f 44c7 5f3c 8feb 653f 6fa2 473f
000003d0: 4ed4 afbf d8df efbe 39e4 71bf 7b0b 533f
000003e0: f834 253f 0e8f b43e 2b4a 8d3f a082 abbf
000003f0: ed1b 613e 1ac3 333f 858b e9bf 44ac 2c3f

bias f4 [64]
1.3389232 -0.08742049 1.3038733 1.3758296 1.2480009 1.3941438 -0.64965045 1.2416599
1.432062 1.3200758 -0.15796271 -0.9825438 0.016454885 1.198058 1.3532848 0.8364286
1.3649404 1.2572516 -0.5925135 1.4807205 1.1759661 0.014677061 1.2491522 1.2370319
0.04965931 1.4103123 1.1145275 1.2579763 1.3617984 -0.16552277 -0.24157594 1.2644277
-0.77137643 1.4271728 0.0034441878 1.2661883 -0.08710095 0.039631944 -0.4951641 -0.16462715
1.3096608 0.96048796 1.225951 -0.855164 1.1898397 -0.112851396 0.043016024 1.4667895
-0.056059167 1.369923 -0.8713107 1.3221133 1.1932741 0.04918701 -0.5532777 1.4917804
1.0083132 1.1439153 1.1725786 1.2977829 -0.13121162 -0.93783736 1.2576427 1.2543925
00000000: d661 ab3f 8409 b3bd 52e5 a63f 2f1b b03f
00000010: 7ebe 9f3f 4e73 b23f 7e4f 26bf b6ee 9e3f
00000020: cf4d b73f 3ef8 a83f fac0 21be fe87 7bbf
00000030: 65cc 863c f759 993f 7038 ad3f 2f20 563f
00000040: 5eb6 ae3f 9fed a03f f7ae 17bf 4088 bd3f
00000050: 0f86 963f 0e78 703c 38e4 9f3f 1057 9e3f
00000060: 9067 4b3d 1d85 b43f d6a8 8e3f 5e05 a13f
00000070: 694f ae3f cd7e 29be af5f 77be c4d8 a13f
00000080: ed78 45bf 99ad b63f e2b7 613b 7512 a23f
00000090: fc61 b2bd 1b55 223d 2686 fdbe 0594 28be
000000a0: f7a2 a73f 8ae2 753f f6eb 9c3f 07ec 5abf
000000b0: ab4c 983f a21e e7bd 9231 303d c2bf bb3f
000000c0: 4c9e 65bd a359 af3f 380e 5fbf 023b a93f
000000d0: 35bd 983f 5178 493d 9ba3 0dbf a9f2 be3f
000000e0: 6810 813f d16b 923f 0e17 963f c01d a63f
000000f0: 575c 06be 1c16 70bf 70fa a03f ef8f a03f

weight f4 [3, 64]
2.0848706 0.008402426 2.107161 2.031415 2.502451 2.2961998 -1.9853182 2.2570431
2.5379434 2.8010154 -0.030019287 -4.184449 0.03450702 2.2807126 2.2755907 -4.6553473
1.8947674 1.5498656 -3.7838547 2.3987522 1.1070774 -0.083423816 1.9529456 1.9308101
-0.06284151 3.0495083 2.5735953 2.4071805 2.1876316 0.22122362 -1.8043358 2.7311037
-0.4189701 2.1031127 -3.2203565 2.6552184 -0.09863287 0.009944436 -2.5553322 0.19706726
2.1062498 -0.8866844 2.4152753 -2.9249587 2.1487525 0.10207631 0.02393978 3.1176248
0.0027265686 2.6614716 -2.9557717 2.8570278 1.7189847 -0.06988749 -0.7967344 2.5525439
1.6265683 1.9739852 2.0540369 2.2870457 0.036048092 -3.0407267 1.971579 2.1095212
2.0035474 0.024478996 1.9493521 2.3968036 2.202246 2.7071035 -1.0275211 2.0957968
2.8320239 2.590983 -0.031798355 -2.4602907 -0.050797254 1.4539614 2.6265094 -5.4709063
0.8060943 2.8003762 -3.6588426 1.7443705 2.7336738 0.0033133419 2.6178613 2.6783953
0.10136254 2.305455 2.1879702 1.7714694 2.3863826 -0.12991403 -3.2283452 2.3723054
-0.88951933 2.4142375 0.1289678 2.209609 0.038270026 -0.085579894 -2.7952247 -0.226588
2.6130893 1.8505658 2.3193288 -2.6378856 2.4856126 -0.083510414 -0.02670941 2.6135645
0.06476223 2.6765666 -3.1201394 2.3338237 0.8779817 -0.013935369 -0.52011967 2.4086213
1.5164407 2.2503016 2.8836315 2.4078615 0.0074163494 -1.8690437 0.83644 2.3993344
1.5190908 -0.083686925 2.1091044 2.1242437 2.028172 2.2036133 -1.7695421 2.4006195
2.788967 2.3991816 -0.073556885 -3.762197 0.0033125377 2.1688113 2.2208314 -4.667577
1.6551445 2.401048 -2.3984764 2.0713308 1.7597396 -0.01477967 2.103754 2.4089541
-0.10352242 2.5294845 2.3735354 1.9386541 2.6440315 0.07026421 -2.8825486 2.4087899
-0.8124963 2.4735432 -1.2899736 2.4652214 -0.060811758 0.07952527 -2.9592485 -0.062124874
2.4195633 0.37934944 2.0423703 -3.1400092 2.1954615 -0.025101453 -0.07726863 2.6630547
-0.094259895 2.674538 -2.98488 2.4940534 1.871884 -0.046855006 -1.1825553 2.0458121
1.5408624 2.2750065 2.1764305 2.5284388 0.012479862 -2.6825566 1.6103134 2.4685743
00000000: 856e 0540 54aa 093c badb 0640 b402 0240
00000010: 2828 2040 f0f4 1240 e81e febf 6573 1040
00000020: aa6d 2240 d643 3340 02eb f5bc 02e7 85c0
00000030: 3c57 0d3d 32f7 1140 47a3 1140 9bf8 94c0
00000040: bd87 f23f ff61 c63f ad2a 72c0 2885 1940
00000050: b6b4 8d3f 1bda aabd 1ffa f93f c924 f73f
00000060: 0db3 80bd 252b 4340 c9b5 2440 3f0f 1a40
00000070: 2802 0c40 7288 623e 7af4 e6bf 67ca 2e40
00000080: 4083 d6be 6699 0640 521a 4ec0 19ef 2940
00000090: 0800 cabd fded 223c 908a 23c0 00cc 493e
000000a0: cccc 0640 c0fd 62bf df93 1a40 8632 3bc0
000000b0: 2985 0940 620d d13d 5c1d c43c 2a87 4740
000000c0: 3bb0 323b 8d55 2a40 5d2b 3dc0 8bd9 3640
000000d0: b107 dc3f 2c21 8fbd c9f6 4bbf e15c 2340
000000e0: 6433 d03f 8cab fc3f 5775 0340 f55e 1240
000000f0: 2aa7 133d 449b 42c0 b35c fc3f 6502 0740
00000100: 1f3a 0040 2d88 c83c 5f84 f93f 3b65 1940
00000110: 99f1 0c40 2f41 2d40 d085 83bf 8921 0640
00000120: e13f 3540 aad2 2540 fe3e 02bd 6775 1dc0
00000130: c810 50bd 681b ba3f bb18 2840 aa11 afc0
00000140: 325c 4e3f 5d39 3340 7a2a 6ac0 8847 df3f
00000150: 83f4 2e40 a724 593b 0a8b 2740 d46a 2b40
00000160: 2a97 cf3d 938c 1340 b407 0c40 82bf e23f
00000170: 7eba 1840 2f08 05be 359d 4ec0 dad3 1740
00000180: 8ab7 63bf de82 1a40 2310 043e 3c6a 0d40
00000190: 08c1 1c3d 8344 afbd f6e4 32c0 af06 68be
000001a0: db3c 2740 57df ec3f e26f 1440 1ed3 28c0
000001b0: 4714 1f40 8207 abbd b1cd dabc a444 2740
000001c0: 0fa2 843d de4c 2b40 5db0 47c0 5e5d 1540
000001d0: 69c3 603f 2d51 64bc 9026 05bf da26 1a40
000001e0: bb1a c23f f104 1040 6b8d 3840 671a 1a40
000001f0: d904 f33b d33c efbf ef20 563f b28e 1940
00000200: 9171 c23f 0d64 abbd 91fb 0640 9cf3 0740
00000210: 92cd 0140 0008 0d40 5b80 e2bf c0a3 1940
00000220: 6f7e 3240 318c 1940 fea4 96bd d6c7 70c0
00000230: 2917 593b cecd 0a40 1a22 0e40 ca5c 95c0
00000240: c6db d33f c5aa 1940 a380 19c0 af90 0440
00000250: 263f e13f 6e26 72bc e8a3 0640 4e2c 1a40
00000260: 9003 d4bd 13e3 2140 01e8 1740 d125 f83f
00000270: d037 2940 afe6 8f3d ad7b 38c0 9d29 1a40
00000280: c2ff 4fbf 884e 1e40 db1d a5bf 30c6 1d40
00000290: c015 79bd 25de a23d 5464 3dc0 a776 7ebd
000002a0: 20da 1a40 173a c23e 32b6 0240 e9f5 48c0
000002b0: 7182 0c40 90a1 cdbc 043f 9ebd 7d6f 2a40
000002c0: 550b c1bd a12b 2b40 4608 3fc0 929e 1f40
000002d0: e599 ef3f 09eb 3fbd f95d 97bf 96ee 0240
000002e0: fb3a c53f b599 1140 a34a 0b40 f1d1 2140
000002f0: 5678 4c3c 02af 2bc0 c01e ce3f 1ffd 1d40

bias f4 [3]
1.13753 0.7841643 0.8276757
00000000: 959a 913f febe 483f 8ee2 533f
